…
 at 0x7f0c687b28d0>', 'replay_buffer_class': "<class 'stable_baselines3.common.buffers.ReplayBuffer'>", 'replay_buffer_kwargs': '{}', '_episode_storage': 'None', 'train_freq': "TrainFreq(frequency=1, unit=<TrainFrequencyUnit.EPISODE: 'episode'>)", 'use_sde_at_warmup': 'False', 'policy_delay': 1, 'target_noise_clip': 0.0, 'target_policy_noise': 0.1, 'lr_schedule': '<function constant_fn.<locals>.func at 0x7f0c692ee7a0>', 'policy': 'TD3Policy(\n  (actor): Actor(\n    (features_extractor): FlattenExtractor(\n      (flatten): Flatten(start_dim=1, end_dim=-1)\n    )\n    (mu): Sequential(\n      (0): Linear(in_features=25, out_features=400, bias=True)\n      (1): ReLU()\n      (2): Linear(in_features=400, out_features=300, bias=True)\n      (3): ReLU()\n      (4): Linear(in_features=300, out_features=7, bias=True)\n      (5): Tanh()\n    )\n  )\n  (actor_target): Actor(\n    (features_extractor): FlattenExtractor(\n      (flatten): Flatten(start_dim=1, end_dim=-1)\n    )\n    (mu): Sequential(\n      (0): Linear(in_features=25, out_features=400, bias=True)\n      (1): ReLU()\n      (2): Linear(in_features=400, out_features=300, bias=True)\n      (3): ReLU()\n      (4): Linear(in_features=300, out_features=7, bias=True)\n      (5): Tanh()\n    )\n  )\n  (critic): ContinuousCritic(\n    (features_extractor): FlattenExtractor(\n      (flatten): Flatten(start_dim=1, end_dim=-1)\n    )\n    (qf0): Sequential(\n      (0): Linear(in_features=32, out_features=400, bias=True)\n      (1): ReLU()\n      (2): Linear(in_features=400, out_features=300, bias=True)\n      (3): ReLU()\n      (4): Linear(in_features=300, out_features=1, bias=True)\n    )\n  )\n  (critic_target): ContinuousCritic(\n    (features_extractor): FlattenExtractor(\n      (flatten): Flatten(start_dim=1, end_dim=-1)\n    )\n    (qf0): Sequential(\n      (0): Linear(in_features=32, out_features=400, bias=True)\n      (1): ReLU()\n      (2): Linear(in_features=400, out_features=300, bias=True)\n      (3): ReLU()\n      (4): Linear(in_features=300, out_features=1, bias=True)\n    )\n  )\n)', 'actor': 'Actor(\n  (features_extractor): FlattenExtractor(\n    (flatten): Flatten(start_dim=1, end_dim=-1)\n  )\n  (mu): Sequential(\n    (0): Linear(in_features=25, out_features=400, bias=True)\n    (1): ReLU()\n    (2): Linear(in_features=400, out_features=300, bias=True)\n    (3): ReLU()\n    (4): Linear(in_features=300, out_features=7, bias=True)\n    (5): Tanh()\n  )\n)', 'actor_target': 'Actor(\n  (features_extractor): FlattenExtractor(\n    (flatten): Flatten(start_dim=1, end_dim=-1)\n  )\n  (mu): Sequential(\n    (0): Linear(in_features=25, out_features=400, bias=True)\n    (1): ReLU()\n    (2): Linear(in_features=400, out_features=300, bias=True)\n    (3): ReLU()\n    (4): Linear(in_features=300, out_features=7, bias=True)\n    (5): Tanh()\n  )\n)', 'critic': 'ContinuousCritic(\n  (features_extractor): FlattenExtractor(\n    (flatten): Flatten(start_dim=1, end_dim=-1)\n  )\n  (qf0): Sequential(\n    (0): Linear(in_features=32, out_features=400, bias=True)\n    (1): ReLU()\n    (2): Linear(in_features=400, out_features=300, bias=True)\n    (3): ReLU()\n    (4): Linear(in_features=300, out_features=1, bias=True)\n  )\n)', 'critic_target': 'ContinuousCritic(\n  (features_extractor): FlattenExtractor(\n    (flatten): Flatten(start_dim=1, end_dim=-1)\n  )\n  (qf0): Sequential(\n    (0): Linear(in_features=32, out_features=400, bias=True)\n    (1): ReLU()\n    (2): Linear(in_features=400, out_features=300, bias=True)\n    (3): ReLU()\n    (4): Linear(in_features=300, out_features=1, bias=True)\n  )\n)', 'actor_batch_norm_stats': '[]', 'critic_batch_norm_stats': '[]', 'actor_batch_norm_stats_target': '[]', 'critic_batch_norm_stats_target': '[]', '_logger': '<stable_baselines3.common.logger.Logger object at 0x7f0c68f92410>'}
2024-11-20 16:41:29,912 INFO    MainThread:318380 [sb3.py:save_model():153] Saving model checkpoint to models/qgpsm06j/model.zip
…
